…
orical inputs (see PR #10521), not just integer categorical inputs. If you are using an older version of Scikit-Learn, you can import the new version from future_encoders.py:\n\n\n\ntry:\n    from sklearn.preprocessing import OrdinalEncoder # just to raise an ImportError if Scikit-Learn &lt; 0.20\n    from sklearn.preprocessing import OneHotEncoder\nexcept ImportError:\n    from future_encoders import OneHotEncoder # Scikit-Learn &lt; 0.20\n\ncat_encoder = OneHotEncoder()\nhousing_cat_1hot = cat_encoder.fit_transform(housing_cat)\n\nprint(housing_cat_1hot)\nprint(cat_encoder.categories_)\n\n  (0, 1)    1.0\n  (1, 4)    1.0\n  (2, 1)    1.0\n  (3, 4)    1.0\n  (4, 0)    1.0\n  (5, 3)    1.0\n  (6, 0)    1.0\n  (7, 0)    1.0\n  (8, 0)    1.0\n  (9, 0)    1.0\n  (10, 1)   1.0\n  (11, 0)   1.0\n  (12, 1)   1.0\n  (13, 1)   1.0\n  (14, 4)   1.0\n  (15, 0)   1.0\n  (16, 0)   1.0\n  (17, 0)   1.0\n  (18, 3)   1.0\n  (19, 0)   1.0\n  (20, 1)   1.0\n  (21, 3)   1.0\n  (22, 1)   1.0\n  (23, 0)   1.0\n  (24, 1)   1.0\n  : :\n  (16487, 1)    1.0\n  (16488, 0)    1.0\n  (16489, 4)    1.0\n  (16490, 4)    1.0\n  (16491, 1)    1.0\n  (16492, 1)    1.0\n  (16493, 0)    1.0\n  (16494, 0)    1.0\n  (16495, 0)    1.0\n  (16496, 1)    1.0\n  (16497, 0)    1.0\n  (16498, 4)    1.0\n  (16499, 0)    1.0\n  (16500, 0)    1.0\n  (16501, 1)    1.0\n  (16502, 1)    1.0\n  (16503, 1)    1.0\n  (16504, 1)    1.0\n  (16505, 0)    1.0\n  (16506, 0)    1.0\n  (16507, 0)    1.0\n  (16508, 1)    1.0\n  (16509, 0)    1.0\n  (16510, 0)    1.0\n  (16511, 1)    1.0\n[array(['&lt;1H OCEAN', 'INLAND', 'ISLAND', 'NEAR BAY', 'NEAR OCEAN'],\n      dtype=object)]\n\n\nWe next use Scikit-Learn’s FunctionTransformer class that lets you easily create a transformer based on a transformation function. Note that we need to set validate=False because the data contains non-float values (validate will default to False in Scikit-Learn 0.22).\n\n# get the right column ind
…
  col_names=['input_size',\n                   'output_size',\n                   'num_params'])\n\n===================================================================================================================\nLayer (type:depth-idx)                   Input Shape               Output Shape              Param #\n===================================================================================================================\nHittersModel                             [175, 19]                 [175]                     --\n├─Flatten: 1-1                           [175, 19]                 [175, 19]                 --\n├─Sequential: 1-2                        [175, 19]                 [175, 1]                  --\n│    └─Linear: 2-1                       [175, 19]                 [175, 50]                 1,000\n│    └─ReLU: 2-2                         [175, 50]                 [175, 50]                 --\n│    └─Dropout: 2-3                      [175, 50]                 [175, 50]                 --\n│    └─Linear: 2-4                       [175, 50]                 [175, 1]                  51\n===================================================================================================================\nTotal params: 1,051\nTrainable params: 1,051\nNon-trainable params: 0\nTotal mult-adds (Units.MEGABYTES): 0.18\n===================================================================================================================\nInput size (MB): 0.01\nForward/backward pass size (M
…
 through the final batched X_ from above.\n\nsummary(mnist_model,\n        input_data=X_,\n        col_names=['input_size',\n                   'output_size',\n                   'num_params'])\n\n===================================================================================================================\nLayer (type:depth-idx)                   Input Shape               Output Shape              Param #\n===================================================================================================================\nMNISTModel                               [256, 1, 28, 28]          [256, 10]                 --\n├─Sequential: 1-1                        [256, 1, 28, 28]          [256, 10]                 --\n│    └─Sequential: 2-1                   [256, 1, 28, 28]          [256, 256]                --\n│    │    └─Flatten: 3-1                 [256, 1, 28, 28]          [256, 784]                --\n│    │    └─Linear: 3-2                  [256, 784]                [256, 256]                200,960\n│    │    └─ReLU: 3-3                    [256, 256]                [256, 256]                --\n│    │    └─Dropout: 3-4                 [256, 256]                [256, 256]                --\n│    └─Sequential: 2-2                   [256, 256]                [256, 128]                --\n│    │    └─Linear: 3-5                  [256, 256]                [256, 128]                32,896\n│    │    └─ReLU: 3-6                    [256, 128]                [256, 128]                --\n│    │    └─Dropout: 3-7                 [256, 128]                [256, 128]                --\n│    └─Linear: 2-3                       [256, 128]                [256, 10]                 1,290\n===================================================================================================================\nTotal params: 235,146\nTrainable params: 235,146\nNon-trainable params: 0\nTotal mult-adds (Units.MEGABYTES): 60.20\n===================================================================================================================\nInput size (MB): 0.80\nForward/backward pass si
…
 X_ earlier.)\n\ncifar_model = CIFARModel()\nsummary(cifar_model,\n        input_data=X_,\n        col_names=['input_size',\n                   'output_size',\n                   'num_params'])\n\n===================================================================================================================\nLayer (type:depth-idx)                   Input Shape               Output Shape              Param #\n===================================================================================================================\nCIFARModel                               [128, 3, 32, 32]          [128, 100]                --\n├─Sequential: 1-1                        [128, 3, 32, 32]          [128, 256, 2, 2]          --\n│    └─BuildingBlock: 2-1                [128, 3, 32, 32]          [128, 32, 16, 16]         --\n│    │    └─Conv2d: 3-1                  [128, 3, 32, 32]          [128, 32, 32, 32]         896\n│    │    └─ReLU: 3-2                    [128, 32, 32, 32]         [128, 32, 32, 32]         --\n│    │    └─MaxPool2d: 3-3               [128, 32, 32, 32]         [128, 32, 16, 16]         --\n│    └─BuildingBlock: 2-2                [128, 32, 16, 16]         [128, 64, 8, 8]           --\n│    │    └─Conv2d: 3-4                  [128, 32, 16, 16]         [128, 64, 16, 16]         18,496\n│    │    └─ReLU: 3-5                    [128, 64, 16, 16]         [128, 64, 16, 16]         --\n│    │    └─MaxPool2d: 3-6               [128, 64, 16, 16]         [128, 64, 8, 8]           --\n│    └─BuildingBlock: 2-3                [128, 64, 8, 8]           [128, 128, 4, 4]          --\n│    │    └─Conv2d: 3-7                  [128, 64, 8, 8]           [128, 128, 8, 8]          73,856\n│    │    └─ReLU: 3-8                    [128, 128, 8, 8]          [128, 128, 8, 8]          --\n│    │    └─MaxPool2d: 3-9               [128, 128, 8, 8]          [128, 128, 4, 4]          --\n│    └─BuildingBlock: 2-4                [128, 128, 4, 4]          [128, 256, 2, 2]          --\n│    │    └─Conv2d: 3-10                 [128, 128, 4, 4]          [128, 256, 4, 4]          295,168\n│    │    └─ReLU: 3-11                   [128, 256, 4, 4]          [128, 256, 4, 4]          --\n│    │    └─MaxPool2d: 3-12              [128, 256, 4, 4]          [128, 256, 2, 2]          --\n├─Sequential: 1-2                        [128, 1024]               [128, 100]                --\n│    └─Dropout: 2-5                      [128, 1024]               [128, 1024]               --\n│    └─Linear: 2-6                       [128, 1024]               [128, 512]                524,800\n│    └─ReLU: 2-7                         [128, 512]                [128, 512]                --\n│    └─Linear: 2-8                       [128, 512]                [128, 100]                51,300\n===================================================================================================================\nTotal params: 964,516\nTrainable params: 964,516\nNon-trainable params: 0\nTotal mult-adds (Units.GIGABYTES): 2.01\n===================================================================================================================\nInput size (MB): 1.57\nForward/backward pass siz
…
snet50(weights=ResNet50_Weights.DEFAULT)\nsummary(resnet_model,\n        input_data=imgs,\n        col_names=['input_size',\n                   'output_size',\n                   'num_params'])\n\n===================================================================================================================\nLayer (type:depth-idx)                   Input Shape               Output Shape              Param #\n===================================================================================================================\nResNet                                   [5, 3, 224, 224]          [5, 1000]                 --\n├─Conv2d: 1-1                            [5, 3, 224, 224]          [5, 64, 112, 112]         9,408\n├─BatchNorm2d: 1-2                       [5, 64, 112, 112]         [5, 64, 112, 112]         128\n├─ReLU: 1-3                              [5, 64, 112, 112]         [5, 64, 112, 112]         --\n├─MaxPool2d: 1-4                         [5, 64, 112, 112]         [5, 64, 56, 56]           --\n├─Sequential: 1-5                        [5, 64, 56, 56]           [5, 256, 56, 56]          --\n│    └─Bottleneck: 2-1                   [5, 64, 56, 56]           [5, 256, 56, 56]          --\n│    │    └─Conv2d: 3-1                  [5, 64, 56, 56]           [5, 64, 56, 56]           4,096\n│    │    └─BatchNorm2d: 3-2             [5, 64, 56, 56]           [5, 64, 56, 56]           128\n│    │    └─ReLU: 3-3                    [5, 64, 56, 56]           [5, 64, 56, 56]           --\n│    │    └─Conv2d: 3-4                  [5, 64, 56, 56]           [5, 64, 56, 56]           36,864\n│    │    └─BatchNorm2d: 3-5             [5, 64, 56, 56]           [5, 64, 56, 56]           128\n│    │    └─ReLU: 3-6                    [5, 64, 56, 56]           [5, 64, 56, 56]           --\n│    │    └─Conv2d: 3-7                  [5, 64, 56, 56]           [5, 256, 56, 56]          16,384\n│    │    └─BatchNorm2d: 3-8             [5, 256, 56, 56]          [5, 256, 56, 56]          512\n│    │    └─Sequential: 3-9              [5, 64, 56, 56]           [5, 256, 56, 56]          16,896\n│    │    └─ReLU: 3-10                   [5, 256, 56, 56]          [5, 256, 56, 56]          --\n│    └─Bottleneck: 2-2                   [5, 256, 56, 56]          [5, 256, 56, 56]          --\n│    │    └─Conv2d: 3-11                 [5, 256, 56, 56]          [5, 64, 56, 56]           16,384\n│    │    └─BatchNorm2d: 3-12            [5, 64, 56, 56]           [5, 64, 56, 56]           128\n│    │    └─ReLU: 3-13                   [5, 64, 56, 56]           [5, 64, 56, 56]           --\n│    │    └─Conv2d: 3-14                 [5, 64, 56, 56]           [5, 64, 56, 56]           36,864\n│    │    └─BatchNorm2d: 3-15            [5, 64, 56, 56]           [5, 64, 56, 56]           128\n│    │    └─ReLU: 3-16                   [5, 64, 56, 56]           [5, 64, 56, 56]           --\n│    │    └─Conv2d: 3-17                 [5, 64, 56, 56]           [5, 256, 56, 56]          16,384\n│    │    └─BatchNorm2d: 3-18            [5, 256, 56, 56]          [5, 256, 56, 56]          512\n│    │    └─ReLU: 3-19                   [5, 256, 56, 56]          [5, 256, 56, 56]          --\n│    └─Bottleneck: 2-3                   [5, 256, 56, 56]          [5, 256, 56, 56]          --\n│    │    └─Conv2d: 3-20                 [5, 256, 56, 56]          [5, 64, 56, 56]           16,384\n│    │    └─BatchNorm2d: 3-21            [5, 64, 56, 56]           [5, 64, 56, 56]           128\n│    │    └─ReLU: 3-22                   [5, 64, 56, 56]           [5, 64, 56, 56]           --\n│    │    └─Conv2d: 3-23                 [5, 64, 56, 56]           [5, 64, 56, 56]           36,864\n│    │    └─BatchNorm2d: 3-24            [5, 64, 56, 56]           [5, 64, 56, 56]           128\n│    │    └─ReLU: 3-25                   [5, 64, 56, 56]           [5, 64, 56, 56]           --\n│    │    └─Conv2d: 3-26                 [5, 64, 56, 56]           [5, 256, 56, 56]          16,384\n│    │    └─BatchNorm2d: 3-27            [5, 256, 56, 56]          [5, 256, 56, 56]          512\n│    │    └─ReLU: 3-28                   [5, 256, 56, 56]          [5, 256, 56, 56]          --\n├─Sequential: 1-6                        [5, 256, 56, 56]          [5, 512, 28, 28]          --\n│    └─Bottleneck: 2-4                   [5, 256, 56, 56]          [5, 512, 28, 28]          --\n│    │    └─Conv2d: 3-29                 [5, 256, 56, 56]          [5, 128, 56, 56]          32,768\n│    │    └─BatchNorm2d: 3-30            [5, 128, 56, 56]          [5, 128, 56, 56]          256\n│    │    └─ReLU: 3-31                   [5, 128, 56, 56]          [5, 128, 56, 56]          --\n│    │    └─Conv2d: 3-32                 [5, 128, 56, 56]          [5, 128, 28, 28]          147,456\n│    │    └─BatchNorm2d: 3-33            [5, 128, 28, 28]          [5, 128, 28, 28]          256\n│    │    └─ReLU: 3-34                   [5, 128, 28, 28]          [5, 128, 28, 28]          --\n│    │    └─Conv2d: 3-35                 [5, 128, 28, 28]          [5, 512, 28, 28]          65,536\n│    │    └─BatchNorm2d: 3-36            [5, 512, 28, 28]          [5, 512, 28, 28]          1,024\n│    │    └─Sequential: 3-37             [5, 256, 56, 56]          [5, 512, 28, 28]          132,096\n│    │    └─ReLU: 3-38                   [5, 512, 28, 28]          [5, 512, 28, 28]          --\n│    └─Bottleneck: 2-5                   [5, 512, 28, 28]          [5, 512, 28, 28]          --\n│    │    └─Conv2d: 3-39                 [5, 512, 28, 28]          [5, 128, 28, 28]          65,536\n│    │    └─BatchNorm2d: 3-40            [5, 128, 28, 28]          [5, 128, 28, 28]          256\n│    │    └─ReLU: 3-41                   [5, 128, 28, 28]          [5, 128, 28, 28]          --\n│    │    └─Conv2d: 3-42                 [5, 128, 28, 28]          [5, 128, 28, 28]          147,456\n│    │    └─BatchNorm2d: 3-43            [5, 128, 28, 28]          [5, 128, 28, 28]          256\n│    │    └─ReLU: 3-44                   [5, 128, 28, 28]          [5, 128, 28, 28]          --\n│    │    └─Conv2d: 3-45                 [5, 128, 28, 28]          [5, 512, 28, 28]          65,536\n│    │    └─BatchNorm2d: 3-46            [5, 512, 28, 28]          [5, 512, 28, 28]          1,024\n│    │    └─ReLU: 3-47                   [5, 512, 28, 28]          [5, 512, 28, 28]          --\n│    └─Bottleneck: 2-6                   [5, 512, 28, 28]          [5, 512, 28, 28]          --\n│    │    └─Conv2d: 3-48                 [5, 512, 28, 28]          [5, 128, 28, 28]          65,536\n│    │    └─BatchNorm2d: 3-49            [5, 128, 28, 28]          [5, 128, 28, 28]          256\n│    │    └─ReLU: 3-50                   [5, 128, 28, 28]          [5, 128, 28, 28]          --\n│    │    └─Conv2d: 3-51                 [5, 128, 28, 28]          [5, 128, 28, 28]          147,456\n│    │    └─BatchNorm2d: 3-52            [5, 128, 28, 28]          [5, 128, 28, 28]          256\n│    │    └─ReLU: 3-53                   [5, 128, 28, 28]          [5, 128, 28, 28]          --\n│    │    └─Conv2d: 3-54                 [5, 128, 28, 28]          [5, 512, 28, 28]          65,536\n│    │    └─BatchNorm2d: 3-55            [5, 512, 28, 28]          [5, 512, 28, 28]          1,024\n│    │    └─ReLU: 3-56                   [5, 512, 28, 28]          [5, 512, 28, 28]          --\n│    └─Bottleneck: 2-7                   [5, 512, 28, 28]          [5, 512, 28, 28]          --\n│    │    └─Conv2d: 3-57                 [5, 512, 28, 28]          [5, 128, 28, 28]          65,536\n│    │    └─BatchNorm2d: 3-58            [5, 128, 28, 28]          [5, 128, 28, 28]          256\n│    │    └─ReLU: 3-59                   [5, 128, 28, 28]          [5, 128, 28, 28]          --\n│    │    └─Conv2d: 3-60                 [5, 128, 28, 28]          [5, 128, 28, 28]          147,456\n│    │    └─BatchNorm2d: 3-61            [5, 128, 28, 28]          [5, 128, 28, 28]          256\n│    │    └─ReLU: 3-62                   [5, 128, 28, 28]          [5, 128, 28, 28]          --\n│    │    └─Conv2d: 3-63                 [5, 128, 28, 28]          [5, 512, 28, 28]          65,536\n│    │    └─BatchNorm2d: 3-64            [5, 512, 28, 28]          [5, 512, 28, 28]          1,024\n│    │    └─ReLU: 3-65                   [5, 512, 28, 28]          [5, 512, 28, 28]          --\n├─Sequential: 1-7                        [5, 512, 28, 28]          [5, 1024, 14, 14]         --\n│    └─Bottleneck: 2-8                   [5, 512, 28, 28]          [5, 1024, 14, 14]         --\n│    │    └─Conv2d: 3-66                 [5, 512, 28, 28]          [5, 256, 28, 28]          131,072\n│    │    └─BatchNorm2d: 3-67            [5, 256, 28, 28]          [5, 256, 28, 28]          512\n│    │    └─ReLU: 3-68                   [5, 256, 28, 28]          [5, 256, 28, 28]          --\n│    │    └─Conv2d: 3-69                 [5, 256, 28, 28]          [5, 256, 14, 14]          589,824\n│    │    └─BatchNorm2d: 3-70            [5, 256, 14, 14]          [5, 256, 14, 14]          512\n│    │    └─ReLU: 3-71                   [5, 256, 14, 14]          [5, 256, 14, 14]          --\n│    │    └─Conv2d: 3-72                 [5, 256, 14, 14]          [5, 1024, 14, 14]         262,144\n│    │    └─BatchNorm2d: 3-73            [5, 1024, 14, 14]         [5, 1024, 14, 14]         2,048\n│    │    └─Sequential: 3-74             [5, 512, 28, 28]          [5, 1024, 14, 14]         526,336\n│    │    └─ReLU: 3-75                   [5, 1024, 14, 14]         [5, 1024, 14, 14]         --\n│    └─Bottleneck: 2-9                   [5, 1024, 14, 14]         [5, 1024, 14, 14]         --\n│    │    └─Conv2d: 3-76                 [5, 1024, 14, 14]         [5, 256, 14, 14]          262,144\n│    │    └─BatchNorm2d: 3-77            [5, 256, 14, 14]          [5, 256, 14, 14]          512\n│    │    └─ReLU: 3-78                   [5, 256, 14, 14]          [5, 256, 14, 14]          --\n│    │    └─Conv2d: 3-79                 [5, 256, 14, 14]          [5, 256, 14, 14]          589,824\n│    │    └─BatchNorm2d: 3-80            [5, 256, 14, 14]          [5, 256, 14, 14]          512\n│    │    └─ReLU: 3-81                   [5, 256, 14, 14]          [5, 256, 14, 14]          --\n│    │    └─Conv2d: 3-82                 [5, 256, 14, 14]          [5, 1024, 14, 14]         262,144\n│    │    └─BatchNorm2d: 3-83            [5, 1024, 14, 14]         [5, 1024, 14, 14]         2,048\n│    │    └─ReLU: 3-84                   [5, 1024, 14, 14]         [5, 1024, 14, 14]         --\n│    └─Bottleneck: 2-10                  [5, 1024, 14, 14]         [5, 1024, 14, 14]         --\n│    │    └─Conv2d: 3-85                 [5, 1024, 14, 14]         [5, 256, 14, 14]          262,144\n│    │    └─BatchNorm2d: 3-86            [5, 256, 14, 14]          [5, 256, 14, 14]          512\n│    │    └─ReLU: 3-87                   [5, 256, 14, 14]          [5, 256, 14, 14]          --\n│    │    └─Conv2d: 3-88                 [5, 256, 14, 14]          [5, 256, 14, 14]          589,824\n│    │    └─BatchNorm2d: 3-89            [5, 256, 14, 14]          [5, 256, 14, 14]          512\n│    │    └─ReLU: 3-90                   [5, 256, 14, 14]          [5, 256, 14, 14]          --\n│    │    └─Conv2d: 3-91                 [5, 256, 14, 14]          [5, 1024, 14, 14]         262,144\n│    │    └─BatchNorm2d: 3-92            [5, 1024, 14, 14]         [5, 1024, 14, 14]         2,048\n│    │    └─ReLU: 3-93                   [5, 1024, 14, 14]         [5, 1024, 14, 14]         --\n│    └─Bottleneck: 2-11                  [5, 1024, 14, 14]         [5, 1024, 14, 14]         --\n│    │    └─Conv2d: 3-94                 [5, 1024, 14, 14]         [5, 256, 14, 14]          262,144\n│    │    └─BatchNorm2d: 3-95            [5, 256, 14, 14]          [5, 256, 14, 14]          512\n│    │    └─ReLU: 3-96                   [5, 256, 14, 14]          [5, 256, 14, 14]          --\n│    │    └─Conv2d: 3-97                 [5, 256, 14, 14]          [5, 256, 14, 14]          589,824\n│    │    └─BatchNorm2d: 3-98            [5, 256, 14, 14]          [5, 256, 14, 14]          512\n│    │    └─ReLU: 3-99                   [5, 256, 14, 14]          [5, 256, 14, 14]          --\n│    │    └─Conv2d: 3-100                [5, 256, 14, 14]          [5, 1024, 14, 14]         262,144\n│    │    └─BatchNorm2d: 3-101           [5, 1024, 14, 14]         [5, 1024, 14, 14]         2,048\n│    │    └─ReLU: 3-102                  [5, 1024, 14, 14]         [5, 1024, 14, 14]         --\n│    └─Bottleneck: 2-12                  [5, 1024, 14, 14]         [5, 1024, 14, 14]         --\n│    │    └─Conv2d: 3-103                [5, 1024, 14, 14]         [5, 256, 14, 14]          262,144\n│    │    └─BatchNorm2d: 3-104           [5, 256, 14, 14]          [5, 256, 14, 14]          512\n│    │    └─ReLU: 3-105                  [5, 256, 14, 14]          [5, 256, 14, 14]          --\n│    │    └─Conv2d: 3-106                [5, 256, 14, 14]          [5, 256, 14, 14]          589,824\n│    │    └─BatchNorm2d: 3-107           [5, 256, 14, 14]          [5, 256, 14, 14]          512\n│    │    └─ReLU: 3-108                  [5, 256, 14, 14]          [5, 256, 14, 14]          --\n│    │    └─Conv2d: 3-109                [5, 256, 14, 14]          [5, 1024, 14, 14]         262,144\n│    │    └─BatchNorm2d: 3-110           [5, 1024, 14, 14]         [5, 1024, 14, 14]         2,048\n│    │    └─ReLU: 3-111                  [5, 1024, 14, 14]         [5, 1024, 14, 14]         --\n│    └─Bottleneck: 2-13                  [5, 1024, 14, 14]         [5, 1024, 14, 14]         --\n│    │    └─Conv2d: 3-112                [5, 1024, 14, 14]         [5, 256, 14, 14]          262,144\n│    │    └─BatchNorm2d: 3-113           [5, 256, 14, 14]          [5, 256, 14, 14]          512\n│    │    └─ReLU: 3-114                  [5, 256, 14, 14]          [5, 256, 14, 14]          --\n│    │    └─Conv2d: 3-115                [5, 256, 14, 14]          [5, 256, 14, 14]          589,824\n│    │    └─BatchNorm2d: 3-116           [5, 256, 14, 14]          [5, 256, 14, 14]          512\n│    │    └─ReLU: 3-117                  [5, 256, 14, 14]          [5, 256, 14, 14]          --\n│    │    └─Conv2d: 3-118                [5, 256, 14, 14]          [5, 1024, 14, 14]         262,144\n│    │    └─BatchNorm2d: 3-119           [5, 1024, 14, 14]         [5, 1024, 14, 14]         2,048\n│    │    └─ReLU: 3-120                  [5, 1024, 14, 14]         [5, 1024, 14, 14]         --\n├─Sequential: 1-8                        [5, 1024, 14, 14]         [5, 2048, 7, 7]           --\n│    └─Bottleneck: 2-14                  [5, 1024, 14, 14]         [5, 2048, 7, 7]           --\n│    │    └─Conv2d: 3-121                [5, 1024, 14, 14]         [5, 512, 14, 14]          524,288\n│    │    └─BatchNorm2d: 3-122           [5, 512, 14, 14]          [5, 512, 14, 14]          1,024\n│    │    └─ReLU: 3-123                  [5, 512, 14, 14]          [5, 512, 14, 14]          --\n│    │    └─Conv2d: 3-124                [5, 512, 14, 14]          [5, 512, 7, 7]            2,359,296\n│    │    └─BatchNorm2d: 3-125           [5, 512, 7, 7]            [5, 512, 7, 7]            1,024\n│    │    └─ReLU: 3-126                  [5, 512, 7, 7]            [5, 512, 7, 7]            --\n│    │    └─Conv2d: 3-127                [5, 512, 7, 7]            [5, 2048, 7, 7]           1,048,576\n│    │    └─BatchNorm2d: 3-128           [5, 2048, 7, 7]           [5, 2048, 7, 7]           4,096\n│    │    └─Sequential: 3-129            [5, 1024, 14, 14]         [5, 2048, 7, 7]           2,101,248\n│    │    └─ReLU: 3-130                  [5, 2048, 7, 7]           [5, 2048, 7, 7]           --\n│    └─Bottleneck: 2-15                  [5, 2048, 7, 7]           [5, 2048, 7, 7]           --\n│    │    └─Conv2d: 3-131                [5, 2048, 7, 7]           [5, 512, 7, 7]            1,048,576\n│    │    └─BatchNorm2d: 3-132           [5, 512, 7, 7]            [5, 512, 7, 7]            1,024\n│    │    └─ReLU: 3-133                  [5, 512, 7, 7]            [5, 512, 7, 7]            --\n│    │    └─Conv2d: 3-134                [5, 512, 7, 7]            [5, 512, 7, 7]            2,359,296\n│    │    └─BatchNorm2d: 3-135           [5, 512, 7, 7]            [5, 512, 7, 7]            1,024\n│    │    └─ReLU: 3-136                  [5, 512, 7, 7]            [5, 512, 7, 7]            --\n│    │    └─Conv2d: 3-137                [5, 512, 7, 7]            [5, 2048, 7, 7]           1,048,576\n│    │    └─BatchNorm2d: 3-138           [5, 2048, 7, 7]           [5, 2048, 7, 7]           4,096\n│    │    └─ReLU: 3-139                  [5, 2048, 7, 7]           [5, 2048, 7, 7]           --\n│    └─Bottleneck: 2-16                  [5, 2048, 7, 7]           [5, 2048, 7, 7]           --\n│    │    └─Conv2d: 3-140                [5, 2048, 7, 7]           [5, 512, 7, 7]            1,048,576\n│    │    └─BatchNorm2d: 3-141           [5, 512, 7, 7]            [5, 512, 7, 7]            1,024\n│    │    └─ReLU: 3-142                  [5, 512, 7, 7]            [5, 512, 7, 7]            --\n│    │    └─Conv2d: 3-143                [5, 512, 7, 7]            [5, 512, 7, 7]            2,359,296\n│    │    └─BatchNorm2d: 3-144           [5, 512, 7, 7]            [5, 512, 7, 7]            1,024\n│    │    └─ReLU: 3-145                  [5, 512, 7, 7]            [5, 512, 7, 7]            --\n│    │    └─Conv2d: 3-146                [5, 512, 7, 7]            [5, 2048, 7, 7]           1,048,576\n│    │    └─BatchNorm2d: 3-147           [5, 2048, 7, 7]           [5, 2048, 7, 7]           4,096\n│    │    └─ReLU: 3-148                  [5, 2048, 7, 7]           [5, 2048, 7, 7]           --\n├─AdaptiveAvgPool2d: 1-9                 [5, 2048, 7, 7]           [5, 2048, 1, 1]           --\n├─Linear: 1-10                           [5, 2048]                 [5, 1000]                 2,049,000\n===================================================================================================================\nTotal params: 25,557,032\nTrainable params: 25,557,032\nNon-trainable params: 0\nTotal mult-adds (Units.GIGABYTES): 20.45\n===================================================================================================================\nInput size (MB): 3.01\nForward/backward p
…
  col_names=['input_size',\n                   'output_size',\n                   'num_params'])\n\n===================================================================================================================\nLayer (type:depth-idx)                   Input Shape               Output Shape              Param #\n===================================================================================================================\nIMDBModel                                [25000, 10003]            [25000]                   --\n├─Linear: 1-1                            [25000, 10003]            [25000, 16]               160,064\n├─ReLU: 1-2                              [25000, 16]               [25000, 16]               --\n├─Linear: 1-3                            [25000, 16]               [25000, 16]               272\n├─ReLU: 1-4                              [25000, 16]               [25000, 16]               --\n├─Linear: 1-5                            [25000, 16]               [25000, 1]                17\n===================================================================================================================\nTotal params: 160,353\nTrainable params: 160,353\nNon-trainable params: 0\nTotal mult-adds (Units.GIGABYTES): 4.01\n===================================================================================================================\nInput size (MB): 1000.30\nForward/backward pass 
…
